…
I0129 20:57:33.984115 139772817229632 visualization.py:162] Storing image to /home/RUS_CIP/st148923/dl-lab-21w-team20/runs/run_2022-01-29T20-49-08-761117/plot/test/deepvis_IDRiD_009.jpg
I0129 20:57:34.064953 139772817229632 visualization.py:165] ======== Finished DeepVis ========
Model: "cnn"
_________________________________________________________________
Layer (type)                 Output Shape              Param #   
=================================================================
input_1 (InputLayer)         [(None, 256, 256, 3)]     0         
_________________________________________________________________
conv2d (Conv2D)              (None, 128, 128, 5)       140       
_________________________________________________________________
conv2d_1 (Conv2D)            (None, 126, 126, 10)      460       
_________________________________________________________________
max_pooling2d (MaxPooling2D) (None, 63, 63, 10)        0         
_________________________________________________________________
batch_normalization (BatchNo (None, 63, 63, 10)        40        
_________________________________________________________________
conv2d_2 (Conv2D)            (None, 61, 61, 20)        1820      
_________________________________________________________________
max_pooling2d_1 (MaxPooling2 (None, 30, 30, 20)        0         
_________________________________________________________________
batch_normalization_1 (Batch (None, 30, 30, 20)        80        
_________________________________________________________________
conv2d_3 (Conv2D)            (None, 28, 28, 40)        7240      
_________________________________________________________________
max_pooling2d_2 (MaxPooling2 (None, 14, 14, 40)        0         
_________________________________________________________________
batch_normalization_2 (Batch (None, 14, 14, 40)        160       
_________________________________________________________________
global_average_pooling2d (Gl (None, 40)                0         
_________________________________________________________________
dense (Dense)                (None, 30)                1230      
_________________________________________________________________
dropout (Dropout)            (None, 30)                0         
_________________________________________________________________
dense_1 (Dense)              (None, 2)                 62        
=================================================================
Total params: 11,232
Trainable params: 11,092
Non-trainable params: 140
_________________________________________________________________
2022-01-29 20:57:37.543780: I tensorflow/core/platform/cpu_feature_guard.cc:142] This TensorFlow binary is optimized with oneAPI Deep Neural Network Library (oneDNN) to use the following CPU instructions in performance-critical operations:  AVX2 FMA
…
I0129 21:57:47.000145 140156176652096 visualization.py:162] Storing image to /home/RUS_CIP/st148923/dl-lab-21w-team20/runs/run_2022-01-29T21-45-52-148213/plot/train/deepvis_IDRiD_009.jpg
I0129 21:57:47.351594 140156176652096 visualization.py:162] Storing image to /home/RUS_CIP/st148923/dl-lab-21w-team20/runs/run_2022-01-29T21-45-52-148213/plot/test/deepvis_IDRiD_009.jpg
I0129 21:57:47.412384 140156176652096 visualization.py:165] ======== Finished DeepVis ========
Model: "team20_cnn_01"
_________________________________________________________________
Layer (type)                 Output Shape              Param #   
=================================================================
conv2d (Conv2D)              (None, 252, 252, 4)       304       
_________________________________________________________________
max_pooling2d (MaxPooling2D) (None, 84, 84, 4)         0         
_________________________________________________________________
batch_normalization (BatchNo (None, 84, 84, 4)         16        
_________________________________________________________________
conv2d_1 (Conv2D)            (None, 82, 82, 32)        1184      
_________________________________________________________________
max_pooling2d_1 (MaxPooling2 (None, 27, 27, 32)        0         
_________________________________________________________________
batch_normalization_1 (Batch (None, 27, 27, 32)        128       
_________________________________________________________________
conv2d_2 (Conv2D)            (None, 25, 25, 64)        18496     
_________________________________________________________________
global_average_pooling2d (Gl (None, 64)                0         
_________________________________________________________________
dropout (Dropout)            (None, 64)                0         
_________________________________________________________________
dense (Dense)                (None, 16)                1040      
_________________________________________________________________
dropout_1 (Dropout)          (None, 16)                0         
_________________________________________________________________
dense_1 (Dense)              (None, 2)                 34        
=================================================================
Total params: 21,202
Trainable params: 21,130
Non-trainable params: 72
_________________________________________________________________
2022-01-29 21:57:50.816414: I tensorflow/core/platform/cpu_feature_guard.cc:142] This TensorFlow binary is optimized with oneAPI Deep Neural Network Library (oneDNN) to use the following CPU instructions in performance-critical operations:  AVX2 FMA
…
I0129 23:04:23.345884 140276847109952 visualization.py:162] Storing image to /home/RUS_CIP/st148923/dl-lab-21w-team20/runs/run_2022-01-29T22-45-16-395241/plot/train/deepvis_IDRiD_009.jpg
I0129 23:04:23.764099 140276847109952 visualization.py:162] Storing image to /home/RUS_CIP/st148923/dl-lab-21w-team20/runs/run_2022-01-29T22-45-16-395241/plot/test/deepvis_IDRiD_009.jpg
I0129 23:04:23.825097 140276847109952 visualization.py:165] ======== Finished DeepVis ========
Model: "team20_cnn_02"
_________________________________________________________________
Layer (type)                 Output Shape              Param #   
=================================================================
conv2d (Conv2D)              (None, 250, 250, 8)       1184      
_________________________________________________________________
conv2d_1 (Conv2D)            (None, 244, 244, 16)      6288      
_________________________________________________________________
max_pooling2d (MaxPooling2D) (None, 122, 122, 16)      0         
_________________________________________________________________
batch_normalization (BatchNo (None, 122, 122, 16)      64        
_________________________________________________________________
conv2d_2 (Conv2D)            (None, 118, 118, 32)      12832     
_________________________________________________________________
max_pooling2d_1 (MaxPooling2 (None, 59, 59, 32)        0         
_________________________________________________________________
batch_normalization_1 (Batch (None, 59, 59, 32)        128       
_________________________________________________________________
conv2d_3 (Conv2D)            (None, 57, 57, 64)        18496     
_________________________________________________________________
max_pooling2d_2 (MaxPooling2 (None, 28, 28, 64)        0         
_________________________________________________________________
batch_normalization_2 (Batch (None, 28, 28, 64)        256       
_________________________________________________________________
conv2d_4 (Conv2D)            (None, 26, 26, 128)       73856     
_________________________________________________________________
global_average_pooling2d (Gl (None, 128)               0         
_________________________________________________________________
dropout (Dropout)            (None, 128)               0         
_________________________________________________________________
dense (Dense)                (None, 16)                2064      
_________________________________________________________________
dropout_1 (Dropout)          (None, 16)                0         
_________________________________________________________________
dense_1 (Dense)              (None, 2)                 34        
=================================================================
Total params: 115,202
Trainable params: 114,978
Non-trainable params: 224
_________________________________________________________________
2022-01-29 23:04:27.299220: I tensorflow/core/platform/cpu_feature_guard.cc:142] This TensorFlow binary is optimized with oneAPI Deep Neural Network Library (oneDNN) to use the following CPU instructions in performance-critical operations:  AVX2 FMA
…
I0130 00:47:37.846849 140541537462080 visualization.py:162] Storing image to /home/RUS_CIP/st148923/dl-lab-21w-team20/runs/run_2022-01-30T00-21-25-313915/plot/test/deepvis_IDRiD_009.jpg
I0130 00:47:37.908890 140541537462080 visualization.py:165] ======== Finished DeepVis ========
Model: "resnet"
__________________________________________________________________________________________________
Layer (type)                    Output Shape         Param #     Connected to                     
==================================================================================================
input_1 (InputLayer)            [(None, 256, 256, 3) 0                                            
__________________________________________________________________________________________________
stem (Sequential)               (None, 256, 256, 32) 1024        input_1[0][0]                    
__________________________________________________________________________________________________
conv2d_1 (Conv2D)               (None, 128, 128, 4)  1156        stem[0][0]                       
__________________________________________________________________________________________________
batch_normalization_1 (BatchNor (None, 128, 128, 4)  16          conv2d_1[0][0]                   
__________________________________________________________________________________________________
conv2d_2 (Conv2D)               (None, 128, 128, 4)  148         batch_normalization_1[0][0]      
__________________________________________________________________________________________________
batch_normalization_2 (BatchNor (None, 128, 128, 4)  16          conv2d_2[0][0]                   
__________________________________________________________________________________________________
conv2d_3 (Conv2D)               (None, 128, 128, 4)  132         stem[0][0]                       
__________________________________________________________________________________________________
add (Add)                       (None, 128, 128, 4)  0           batch_normalization_2[0][0]      
                                                                 conv2d_3[0][0]                   
__________________________________________________________________________________________________
re_lu (ReLU)                    (None, 128, 128, 4)  0           add[0][0]                        
__________________________________________________________________________________________________
conv2d_4 (Conv2D)               (None, 128, 128, 4)  148         re_lu[0][0]                      
__________________________________________________________________________________________________
batch_normalization_3 (BatchNor (None, 128, 128, 4)  16          conv2d_4[0][0]                   
__________________________________________________________________________________________________
conv2d_5 (Conv2D)               (None, 128, 128, 4)  148         batch_normalization_3[0][0]      
__________________________________________________________________________________________________
batch_normalization_4 (BatchNor (None, 128, 128, 4)  16          conv2d_5[0][0]                   
__________________________________________________________________________________________________
conv2d_6 (Conv2D)               (None, 128, 128, 4)  20          re_lu[0][0]                      
__________________________________________________________________________________________________
add_1 (Add)                     (None, 128, 128, 4)  0           batch_normalization_4[0][0]      
                                                                 conv2d_6[0][0]                   
__________________________________________________________________________________________________
re_lu_1 (ReLU)                  (None, 128, 128, 4)  0           add_1[0][0]                      
__________________________________________________________________________________________________
conv2d_7 (Conv2D)               (None, 64, 64, 8)    296         re_lu_1[0][0]                    
__________________________________________________________________________________________________
batch_normalization_5 (BatchNor (None, 64, 64, 8)    32          conv2d_7[0][0]                   
__________________________________________________________________________________________________
conv2d_8 (Conv2D)               (None, 64, 64, 8)    584         batch_normalization_5[0][0]      
__________________________________________________________________________________________________
batch_normalization_6 (BatchNor (None, 64, 64, 8)    32          conv2d_8[0][0]                   
__________________________________________________________________________________________________
conv2d_9 (Conv2D)               (None, 64, 64, 8)    40          re_lu_1[0][0]                    
__________________________________________________________________________________________________
add_2 (Add)                     (None, 64, 64, 8)    0           batch_normalization_6[0][0]      
                                                                 conv2d_9[0][0]                   
__________________________________________________________________________________________________
re_lu_2 (ReLU)                  (None, 64, 64, 8)    0           add_2[0][0]                      
__________________________________________________________________________________________________
conv2d_10 (Conv2D)              (None, 64, 64, 8)    584         re_lu_2[0][0]                    
__________________________________________________________________________________________________
batch_normalization_7 (BatchNor (None, 64, 64, 8)    32          conv2d_10[0][0]                  
__________________________________________________________________________________________________
conv2d_11 (Conv2D)              (None, 64, 64, 8)    584         batch_normalization_7[0][0]      
__________________________________________________________________________________________________
batch_normalization_8 (BatchNor (None, 64, 64, 8)    32          conv2d_11[0][0]                  
__________________________________________________________________________________________________
conv2d_12 (Conv2D)              (None, 64, 64, 8)    72          re_lu_2[0][0]                    
__________________________________________________________________________________________________
add_3 (Add)                     (None, 64, 64, 8)    0           batch_normalization_8[0][0]      
                                                                 conv2d_12[0][0]                  
__________________________________________________________________________________________________
re_lu_3 (ReLU)                  (None, 64, 64, 8)    0           add_3[0][0]                      
__________________________________________________________________________________________________
conv2d_13 (Conv2D)              (None, 64, 64, 32)   2336        re_lu_3[0][0]                    
__________________________________________________________________________________________________
global_average_pooling2d (Globa (None, 32)           0           conv2d_13[0][0]                  
__________________________________________________________________________________________________
dense (Dense)                   (None, 39)           1287        global_average_pooling2d[0][0]   
__________________________________________________________________________________________________
dropout (Dropout)               (None, 39)           0           dense[0][0]                      
__________________________________________________________________________________________________
dense_1 (Dense)                 (None, 2)            80          dropout[0][0]                    
==================================================================================================
Total params: 8,831
Trainable params: 8,671
Non-trainable params: 160
__________________________________________________________________________________________________
2022-01-30 00:47:41.359857: I tensorflow/core/platform/cpu_feature_guard.cc:142] This TensorFlow binary is optimized with oneAPI Deep Neural Network Library (oneDNN) to use the following CPU instructions in performance-critical operations:  AVX2 FMA
…
I0130 03:02:10.887038 139983860717376 visualization.py:162] Storing image to /home/RUS_CIP/st148923/dl-lab-21w-team20/runs/run_2022-01-30T02-37-03-764809/plot/test/deepvis_IDRiD_009.jpg
I0130 03:02:10.948685 139983860717376 visualization.py:165] ======== Finished DeepVis ========
Model: "vgg_like"
_________________________________________________________________
Layer (type)                 Output Shape              Param #   
=================================================================
input_1 (InputLayer)         [(None, 256, 256, 3)]     0         
_________________________________________________________________
conv2d (Conv2D)              (None, 256, 256, 16)      448       
_________________________________________________________________
conv2d_1 (Conv2D)            (None, 256, 256, 16)      2320      
_________________________________________________________________
max_pooling2d (MaxPooling2D) (None, 128, 128, 16)      0         
_________________________________________________________________
conv2d_2 (Conv2D)            (None, 128, 128, 32)      4640      
_________________________________________________________________
conv2d_3 (Conv2D)            (None, 128, 128, 32)      9248      
_________________________________________________________________
max_pooling2d_1 (MaxPooling2 (None, 64, 64, 32)        0         
_________________________________________________________________
conv2d_4 (Conv2D)            (None, 64, 64, 64)        18496     
_________________________________________________________________
conv2d_5 (Conv2D)            (None, 64, 64, 64)        36928     
_________________________________________________________________
max_pooling2d_2 (MaxPooling2 (None, 32, 32, 64)        0         
_________________________________________________________________
conv2d_6 (Conv2D)            (None, 32, 32, 128)       73856     
_________________________________________________________________
conv2d_7 (Conv2D)            (None, 32, 32, 128)       147584    
_________________________________________________________________
max_pooling2d_3 (MaxPooling2 (None, 16, 16, 128)       0         
_________________________________________________________________
conv2d_8 (Conv2D)            (None, 16, 16, 256)       295168    
_________________________________________________________________
conv2d_9 (Conv2D)            (None, 16, 16, 256)       590080    
_________________________________________________________________
max_pooling2d_4 (MaxPooling2 (None, 8, 8, 256)         0         
_________________________________________________________________
global_average_pooling2d (Gl (None, 256)               0         
_________________________________________________________________
dense (Dense)                (None, 64)                16448     
_________________________________________________________________
dropout (Dropout)            (None, 64)                0         
_________________________________________________________________
dense_1 (Dense)              (None, 2)                 130       
=================================================================
Total params: 1,195,346
Trainable params: 1,195,346
Non-trainable params: 0
_________________________________________________________________
2022-01-30 03:02:15.641826: I tensorflow/core/platform/cpu_feature_guard.cc:142] This TensorFlow binary is optimized with oneAPI Deep Neural Network Library (oneDNN) to use the following CPU instructions in performance-critical operations:  AVX2 FMA
…
